claude_model/best_model.pth (torch, 797090 bytes, 15 tensors)

player_embedding.weight f4 [1860, 32]
0	0xbcdd35bc	-0.027003162
1	0xbd139c7d	-0.03603791
2	0xbd8f1ee5	-0.069883145
3	0x3d6ce43b	0.057834845
4	0x3d6a68bc	0.05722879
5	0xbd7b6fd2	-0.061385937
6	0xbc9ca5e1	-0.019122066
7	0x3da64550	0.08118689
8	0xbd1afb09	-0.037837062
9	0x3c506039	0.012718254
10	0x39db9f74	0.00041889737
11	0x3bb06eb8	0.0053842925
12	0x3d8414c0	0.0644927
13	0x3c95b8b3	0.018276548
14	0xbcbeb89f	-0.023281394
15	0x3ca9f041	0.020744445
16	0x3d0b61eb	0.03402893
17	0xbd81c516	-0.06336419
18	0xbcd3b666	-0.02584381
19	0xbc8c7024	-0.017143317
20	0x3d145b95	0.036220152
21	0xbcdccc2a	-0.026952822
22	0x3d9b5b89	0.07585818
23	0x3ccfc26f	0.025361268
24	0xbd043ab2	-0.03228254
25	0x3d8ee899	0.06977958
26	0xbcb0b0f4	-0.021568753
27	0xbd5553be	-0.052081816
28	0xbd282f89	-0.041060958
29	0xbd654fcc	-0.055984303
30	0x3d6e194e	0.0581296
31	0xbd0e27d0	-0.034705937
32	0xbd245d6f	-0.040128168
33	0xbce345e2	-0.027743284
34	0x3d2aaad0	0.041666806
35	0xbcb5c744	-0.022189744
36	0xbe090705	-0.13381584
37	0xbd46c8da	-0.04853139
38	0x3ddd4ec6	0.108060405
39	0x3d84b8f5	0.0648059
40	0x3cc374e1	0.023859443
41	0x3c7ac92b	0.015306751
42	0x3d043c67	0.032284167
43	0xbd815c30	-0.063164115
44	0x3ce46bf4	0.027883507
45	0x3ce23ca0	0.027616799
46	0xbd026fa3	-0.031844746
47	0xbcfe0203	-0.031006819
48	0x3d843eff	0.06457328
49	0x3d4df336	0.050280772
50	0x3d76809c	0.060181245
51	0x3c655581	0.0139974365
52	0x3d36eedf	0.0446614
53	0x3c29d92a	0.010366717
54	0xbb8abc8e	-0.0042339033
55	0x3d11e6c2	0.03562046
56	0xbd00d140	-0.031449556
57	0x3d89a7ce	0.06721459
58	0x3d756b79	0.059916947
59	0xbd565603	-0.05232812
60	0xbd4e6ec0	-0.05039859
61	0x3b84c62e	0.004051945
62	0xbc6ff011	-0.014644639
63	0xbd83b9bc	-0.064319104
64	0xbd25c9bb	-0.04047559
65	0xbb0e1bfe	-0.0021684165
66	0xbd8ddff3	-0.069274805
67	0xbdc56f85	-0.09640411
68	0xbc5ec16d	-0.013595921
69	0xbb27a7e6	-0.0025582253
70	0xbc897473	-0.01677916
71	0xbc2053e1	-0.009785623
72	0xbc0265d1	-0.007958845
73	0xbd7dee8d	-0.061995078
74	0x3ce61661	0.028086843
75	0x3d5c0fef	0.053726133
76	0x3d500088	0.050781757
77	0xbb2febf5	-0.0026843522
78	0x3ce956ee	0.028483834
79	0xbcfb31c6	-0.030663382
80	0x3b49da7b	0.003080039
81	0xbd2509e3	-0.04029263
82	0xbc16bb8d	-0.009199989
83	0x3c671412	0.014103906
84	0xbd3558fe	-0.044274323
85	0xbdae3a49	-0.08507211
86	0x3a79e411	0.0009532581
87	0x3d7c49b8	0.06159374
88	0xbdd0f090	-0.10202134
89	0xbd8c2155	-0.06842295
90	0x3dcf673e	0.10127114
91	0x3d5692a3	0.052385937
92	0xbc188372	-0.009308683
93	0x3d5fe21c	0.054658994
94	0xbd3f7123	-0.046738755
95	0x3d86803d	0.06567428
96	0x3bae1472	0.005312496
97	0x3cc1340f	0.023584394
98	0xbd2ed00c	-0.042678878
99	0xbd269736	-0.04067155
100	0xbcf6dc20	-0.03013426
101	0xbd17c8ad	-0.037056614
102	0xbbda20f5	-0.006656761
103	0x3d847eb6	0.06469481
104	0xba33dda2	-0.0006861334
105	0xbd1446c0	-0.036200285
106	0x3d8b2a9a	0.06795235
107	0xbd872b15	-0.06600014
108	0xbbc4e6bb	-0.0060089505
109	0x3c2c6808	0.01052285
110	0xbce815b7	-0.028330667
111	0xbdeb07eb	-0.114761196
112	0x3d89cfcd	0.06729088
113	0xbcc35831	-0.023845764
114	0x3d833089	0.06405742
115	0x3d5a3c1d	0.053279985
116	0xbd7a0967	-0.061044123
117	0xbd9cf33c	-0.07663581
118	0xbcea73a0	-0.028619587
119	0xbdc01c67	-0.09380417
120	0xbd1f2aae	-0.038859062
121	0x3d12db92	0.03585393
122	0xbc602970	-0.0136817545
123	0x3cea44cf	0.028597264
124	0xbd3ad6d8	-0.045615047
125	0xbd224415	-0.03961571
126	0xbd449074	-0.047989324
127	0x3aafeaa7	0.0013421372
128	0x3cfb6447	0.030687464
129	0x3e02ad5e	0.12761447
130	0x3d102e92	0.035200663
131	0x3c5c6b4e	0.013453318
132	0xbc939dc8	-0.018019572
133	0x3dae23bc	0.085029095
134	0x3c074fdc	0.008258786
135	0xbd88266f	-0.066479556
136	0x3cbb7dfc	0.022887222
137	0x3d090332	0.033450313
138	0x3da21e65	0.079159535
139	0x3d2f1fa6	0.04275479
140	0xbc2660fe	-0.010154961
141	0x3d61b3a6	0.055102967
142	0x3d0f2e4f	0.034956273
143	0xbbd5a1ff	-0.0065195556
144	0x3d8c51b0	0.06851518
145	0x3bc2e889	0.0059481305
146	0x3d5c794d	0.05382662
147	0x3c38200e	0.011238111
148	0xbd9c886a	-0.076432064
149	0x3c706c0e	0.0146742
150	0xbdc0d739	-0.094160505
151	0x3d715edf	0.058928367
152	0x3cffc7df	0.031223236
153	0x3da02628	0.07819778
154	0x3923b10e	0.0001561085
155	0x3c0824fe	0.008309601
156	0xbcbfff16	-0.023437064
157	0x3d8b431d	0.0679991
158	0xbb02b369	-0.0019943363
159	0xbd49968b	-0.049215835
160	0xbcaff423	-0.021478718
161	0xbdbcc0e1	-0.09216476
162	0x3cf2b8c3	0.029629117
163	0xbc7d370d	-0.01545502
164	0x3cbdeaeb	0.023183307
165	0x3d358534	0.044316486
166	0xbddb7b31	-0.10716856
167	0x3dbf3404	0.09336093
168	0xbda3e8ad	-0.08003364
169	0xbd03b4ca	-0.032154836
170	0xbda1b142	-0.07895137
171	0x3cbbe4ab	0.022936186
172	0xbd4b58f3	-0.049645375
173	0xbcfa5a1a	-0.030560542
174	0x3dc31dea	0.0952719
175	0x3da10934	0.078630835
176	0xbd8a4ab8	-0.06752533
177	0xbd31bb68	-0.043391615
178	0x3bfcd06a	0.0077152746
179	0x3bc31875	0.0059538432
180	0xbd4373f1	-0.047717992
181	0x3cb7fb4a	0.022458691
182	0xbd05e87d	-0.03269242
183	0xbc8c9382	-0.017160181
184	0x3bc1197c	0.0058929306
185	0x3cc784ca	0.024355311
186	0x3c814f47	0.015784873
187	0x3c013a99	0.007887506
188	0x3da3accf	0.07991945
189	0xbd16f4f5	-0.036854703
190	0xbd39c9ae	-0.045358352
191	0x3d9c8acc	0.07643661
192	0x3c3c8d13	0.011508244
193	0xbd3a2a3d	-0.045450438
194	0x3d415e1e	0.047208898
195	0xbdb06cb3	-0.08614483
196	0x3d79b545	0.060963888
197	0x3e23800f	0.15966819
198	0xbd9a7ce6	-0.07543354
199	0xbc64c105	-0.013962035
200	0x3d4faa43	0.050699484
201	0xbd36ea93	-0.0446573
202	0x3dcf43c2	0.10120346
203	0xbd548211	-0.051881853
204	0xbd1b458a	-0.037908114
205	0x3c1c7f07	0.00955177
206	0x3d1a0263	0.037599932
207	0x3c7783fc	0.015107151
208	0xbc42e329	-0.0118949795
209	0x3c6f8932	0.014620112
210	0x3cc05536	0.023478132
211	0x3b47337e	0.0030395682
212	0x3db1bc3b	0.0867848
213	0xbc8ce0d9	-0.01719706
214	0xbd81e140	-0.06341791
215	0xbd039fc4	-0.032134786
216	0x3ba92478	0.005161818
217	0xbb38c5d0	-0.0028194077
218	0x3deb9076	0.11502163
219	0x3d69e76b	0.057105463
220	0x3ca349a4	0.019932576
221	0xbddda830	-0.10823095
222	0x3afbb4c0	0.0019203648
223	0xbd2e881a	-0.042610265
224	0x3d2f3746	0.042777322
225	0x3cf8d0f9	0.030373083
226	0xbbff498c	-0.00779075
227	0x3ca0baf4	0.019620396
228	0x3ceb0c9c	0.028692536
229	0x3d35847b	0.044315796
230	0x3b986260	0.004650399
231	0xbd1d31a6	-0.038377427
232	0xbd0e6c2f	-0.03477114
233	0xbbbff1d6	-0.0058576865
234	0xbdbf45d0	-0.093394876
235	0x3de8bd1a	0.11364193
236	0xbcf5d526	-0.030008864
237	0xbd919536	-0.07108538
238	0x3cf5ea96	0.030019086
239	0x3c76add9	0.015056097
240	0xbccb7d7e	-0.024840113
241	0xbc63323b	-0.013866956
242	0xbcee307f	-0.02907586
243	0xbe153bd4	-0.14573604
244	0xbc8fb865	-0.01754398
245	0x3d4b5381	0.049640182
246	0x3df572e1	0.11984802
247	0x3d089b7f	0.033351418
248	0x3d37a7a2	0.0448376
249	0x3d1b7f1b	0.037963014
250	0xbcd97c76	-0.026548605
251	0xbc34d702	-0.01103759
252	0x3c383210	0.011242405
253	0xbd1f3120	-0.03886521
254	0xbd34eb53	-0.044169735
255	0x3d661056	0.056167923

network.0.weight f4 [128, 64]
0	0x3c22d04c	0.009937357
1	0x3daeccbd	0.085351445
2	0xbe719070	-0.23590255
3	0xbe407fb1	-0.1879871
4	0x3cfa38b5	0.030544618
5	0x3d8353fb	0.064125024
6	0x3dd16cb2	0.1022581
7	0x3dca3288	0.09872919
8	0xbd0cbb35	-0.034358222
9	0xbd03fe38	-0.032224864
10	0xbe0e972d	-0.13924856
11	0xbd126413	-0.03573997
12	0x3dab0d1f	0.08352112
13	0xbd066b1e	-0.032817
14	0xbdbafcbc	-0.091302365
15	0xbd978670	-0.07398689
16	0xbe30ca59	-0.1726469
17	0xbe0c3cc0	-0.1369505
18	0xbd2de36e	-0.042453222
19	0xbcf4694e	-0.02983537
20	0x3c7a3fa4	0.015273962
21	0x3cbecaf8	0.023290142
22	0x3c881e4f	0.016616015
23	0x3df84fc2	0.121245876
24	0xbdfe872b	-0.12428125
25	0xbda68457	-0.081307106
26	0xbd9b0066	-0.07568435
27	0x3e2221ca	0.15833202
28	0xbd9b1be6	-0.075736806
29	0x3da37769	0.0798176
30	0x3dbdaadd	0.09261105
31	0xbe0b313d	-0.13593002
32	0x3d3f0091	0.0466314
33	0x3d8ddd88	0.06927019
34	0xbd94ac7a	-0.0725946
35	0xbe5cfb62	-0.2158027
36	0xbcbc73df	-0.02300447
37	0xbe30b075	-0.17254813
38	0x3e19a952	0.15005997
39	0x3e3ef19b	0.18646853
40	0xbddd0927	-0.10792761
41	0xbd8a03be	-0.06738995
42	0xbd0e2c30	-0.03471011
43	0x3e6b3d19	0.22972526
44	0xbd954ef0	-0.07290447
45	0x3decdc50	0.11565459
46	0xbd6cc24a	-0.057802476
47	0xbbebfb30	-0.0072015747
48	0xbd9a760a	-0.075420454
49	0xbe011cc5	-0.12608631
50	0xbdf0eaee	-0.11763559
51	0x3e24d97d	0.1609859
52	0xbd068750	-0.032843888
53	0xbb14264d	-0.0022605837
54	0x3e43a7a2	0.19106916
55	0x3e6e540e	0.23274252
56	0x3c9e8943	0.01935256
57	0xbdb6d6ed	-0.089277126
58	0xbd6cc47a	-0.057804562
59	0x3d6031c7	0.05473497
60	0xbd89bc2a	-0.067253426
61	0x3dabc79b	0.08387681
62	0xbd427311	-0.047473017
63	0xbd7c08b8	-0.061531752
64	0x3dd0c588	0.10193926
65	0xbdcf382a	-0.10118134
66	0x3d4b0ef0	0.049574792
67	0xbe16c27c	-0.14722627
68	0xbcaaddbd	-0.020857686
69	0x3e07c5f1	0.13259102
70	0xbdd7b129	-0.105318375
71	0xbde7dab0	-0.11321008
72	0x3e16a5e0	0.14711714
73	0x3d978857	0.07399052
74	0x3d92fd70	0.071772456
75	0x3c8167eb	0.015796622
76	0xbd9f552c	-0.07779917
77	0xbdcd28d7	-0.10017555
78	0xbd512f24	-0.051070347
79	0x3ddfa445	0.10920004
80	0xbd3f812c	-0.046754047
81	0x3ce45f34	0.027877428
82	0x3de70387	0.1127997
83	0x3c4c8805	0.012483601
84	0x3d9f2530	0.07770765
85	0xbe68d578	-0.22737682
86	0x3e2717fd	0.16317745
87	0x3d3adcb0	0.04562062
88	0x3bad03d5	0.005279998
89	0xbd657c0e	-0.05602651
90	0x3d899124	0.067171365
91	0xbd4ab0ad	-0.049484897
92	0x3db4ddb2	0.088313475
93	0x3dfd49ab	0.12367567
94	0x3e11a378	0.14222515
95	0x3e065904	0.13119894
96	0x3dd91926	0.106005
97	0x3dcbef50	0.099577546
98	0xbd7afed1	-0.061278168
99	0xbd825650	-0.06364119
100	0x3e1a8f73	0.15093784
101	0x3c883408	0.016626373
102	0xbdc65c46	-0.096855685
103	0xbe216aec	-0.15763444
104	0x3e048d3c	0.12944502
105	0xbdbd0773	-0.092299365
106	0x3d18c80e	0.037300162
107	0xbcff543b	-0.031168094
108	0xbdecb974	-0.1155881
109	0xbdfe7609	-0.12424857
110	0x3de42044	0.11138967
111	0x3da43eea	0.080198124
112	0x3d90c28d	0.070683576
113	0x3da8955b	0.08231612
114	0x3cd1dd57	0.025618238
115	0x3e6a9ce3	0.2291141
116	0x3d565cf3	0.052334737
117	0xbe7b53a7	-0.2454363
118	0xbd69b2d4	-0.05705531
119	0xbd42f853	-0.0476001
120	0xbdea5f8d	-0.11444006
121	0x3cfa306f	0.030540673
122	0x3e17c005	0.14819343
123	0xbcaaf5ae	-0.020869102
124	0x3e18727d	0.14887424
125	0xbd9329b5	-0.07185689
126	0x3d83cc10	0.06435406
127	0x3da35a1e	0.07976173
128	0x3cfe4d44	0.031042702
129	0x3dfd17b5	0.123580374
130	0xbd5ac8eb	-0.053414267
131	0x3d5f4c09	0.054515872
132	0xbd7cb15e	-0.061692588
133	0x3ded11da	0.115756705
134	0x3ddf19ef	0.10893618
135	0x3d23bf65	0.03997745
136	0x3c97a7de	0.018512663
137	0xbd26f4c8	-0.040760785
138	0xbd487d85	-0.04894783
139	0x3e289fd2	0.16467217
140	0xbd6eaee6	-0.058272265
141	0x3bbacd24	0.005700724
142	0x3cf77641	0.030207755
143	0x3ddb3584	0.10703567
144	0x3d502208	0.050813705
145	0x3e19f7c3	0.1503592
146	0x3e1ccb1e	0.15311858
147	0xbdcb9889	-0.09941203
148	0xbdcd55b1	-0.1002611
149	0xbe438979	-0.1909541
150	0xbc5811d2	-0.013187842
151	0xbe049b27	-0.12949811
152	0x3d63df21	0.055632714
153	0x3db3f48e	0.087868795
154	0x3dbc2a6c	0.09187779
155	0x3c93e8c4	0.018055327
156	0xbcbed54d	-0.02329507
157	0xbd11ce16	-0.03559693
158	0xbdf7c5df	-0.12098288
159	0x3cb93e46	0.022612702
160	0x3d75fd70	0.06005615
161	0x3e5f4772	0.21804598
162	0xbd95f9c7	-0.07323032
163	0xbd634e6e	-0.05549472
164	0xbe092fbd	-0.13397117
165	0x3cbcdec4	0.023055442
166	0xbe007a2e	-0.12546608
167	0x3dd0783f	0.10179185
168	0x3d193cb1	0.037411395
169	0x3d8ce467	0.06879502
170	0x3d8415f1	0.064494975
171	0x3e1f7fe7	0.15576135
172	0xbd8d0483	-0.06885626
173	0x3e1cbd13	0.15306501
174	0xbd15fe38	-0.036619395
175	0x3e00a086	0.12561235
176	0x3c0ce9f4	0.008600701
177	0x3d0f8729	0.03504101
178	0x3da51dcf	0.08062326
179	0xbd59505d	-0.053055156
180	0xbc683836	-0.014173558
181	0xbe5bc73b	-0.21462719
182	0xbe0cb017	-0.13739048
183	0x3e142a3c	0.14469236
184	0xbc91db86	-0.017804872
185	0xbda6ef0a	-0.08151062
186	0x3ab1724c	0.0013538091
187	0xbdabab4f	-0.08382284
188	0xbe6731b5	-0.22577555
189	0xbd05ec6b	-0.03269617
190	0xbe10621d	-0.14099927
191	0xbd4bcce0	-0.04975593
192	0xbc893d1f	-0.016752778
193	0x3cd38cfc	0.025824063
194	0x3d35d8f9	0.044396374
195	0x3ded44f1	0.11585415
196	0xbdf3a790	-0.118971944
197	0xbdf4063d	-0.11915252
198	0xbb08fb6a	-0.0020901808
199	0x3e09910e	0.1343424
200	0x3dc305f0	0.09522617
201	0xbdb2dc1d	-0.087333895
202	0xbcb79107	-0.022408022
203	0xbd9192c1	-0.07108069
204	0x3c9f924f	0.019478945
205	0x3e312d54	0.17302448
206	0xbdb05746	-0.08610396
207	0x3d9a618d	0.075381376
208	0x3b771dd6	0.0037706993
209	0x3b154f1b	0.0022782746
210	0xbdc4ab6b	-0.09603008
211	0x3c42abdc	0.011881795
212	0x3c3ca2cf	0.011513426
213	0x3dd771d9	0.105197616
214	0x3e1c1430	0.15242076
215	0x3e2845e7	0.16432916
216	0xbd960b74	-0.07326403
217	0xbcf814b9	-0.030283319
218	0xbb95a5d2	-0.0045668865
219	0xbdff9146	-0.124788806
220	0x3d8c402c	0.06848177
221	0xbe1f5093	-0.1555808
222	0x3dec57a6	0.11540155
223	0x3dc14fad	0.09439025
224	0x3c8f47ae	0.017490234
225	0x3d379dc9	0.04482821
226	0x3d94577f	0.07243251
227	0x3e15e665	0.1463867
228	0x3d4c34e5	0.04985513
229	0x3e0f55d2	0.13997582
230	0x3dac0952	0.08400215
231	0x3e0b6341	0.13612081
232	0x3e316a63	0.1732574
233	0x3e023e41	0.1271906
234	0xbe333f6a	-0.1750466
235	0xbd9884d1	-0.07447208
236	0xbda798eb	-0.08183464
237	0x3e0bc1ed	0.13648196
238	0xbddec781	-0.10877896
239	0xbe44dff6	-0.1922606
240	0x3e1758a6	0.1477991
241	0x3d86ffc9	0.06591756
242	0xbdf31e05	-0.1187096
243	0x3cca4716	0.0246921
244	0x3d96e28f	0.07367431
245	0x3e05a8e0	0.13052702
246	0x3e2c258e	0.16811201
247	0x3e21d097	0.15802227
248	0x3dd45a2d	0.10368762
249	0x3e010593	0.12599783
250	0x3be9312d	0.007116458
251	0xbcc998d2	-0.024609003
252	0x3da55645	0.08073095
253	0x3dd498d4	0.10380712
254	0x3d7128de	0.058876865
255	0xbe00ede8	-0.12590754

network.0.bias f4 [128]
0	0x3d7c0113	0.061524462
1	0x3e355ee9	0.17711987
2	0x3df1494b	0.11781558
3	0x3df366bf	0.11884832
4	0x3dce616d	0.10077176
5	0x3dcb796e	0.0993527
6	0x3de42828	0.11140472
7	0xbcc0bcd2	-0.023527537
8	0x3d963dce	0.07336007
9	0x3db1980e	0.0867158
10	0x3de9024a	0.1137739
11	0x3e0f6988	0.140051
12	0x3e189a0d	0.14902516
13	0x3e02c722	0.12771276
14	0x3ddaf43d	0.10691116
15	0x3dfed2cc	0.1244255
16	0x3de36980	0.11104107
17	0x3ddc1fbc	0.1074824
18	0x3d550c34	0.05201359
19	0x3e1b348b	0.15156762
20	0x3db71fd9	0.08941621
21	0x3d93294a	0.0718561
22	0x3e08cfed	0.13360567
23	0x3e2b6b91	0.16740252
24	0x3dbcb9ef	0.092151515
25	0x3beb8450	0.0071874037
26	0x3dde73c9	0.10861928
27	0x3e2d35d6	0.16915068
28	0x3db1c098	0.086793125
29	0x3e1cf7e2	0.15328935
30	0x3d8441f5	0.06457893
31	0x3e0b22e4	0.13587528
32	0x3da2a2ed	0.07941232
33	0x3d80f492	0.06296648
34	0x3de0c4e0	0.10975051
35	0x3df55c3c	0.11980483
36	0x3de2ceac	0.11074576
37	0x3dd169b7	0.10225242
38	0x3e08638e	0.13319227
39	0x3d958a1f	0.07301735
40	0x3d44f4fb	0.048085194
41	0x3d6e0425	0.05810942
42	0x3cbc6750	0.022998482
43	0x3dbc232f	0.09186398
44	0x3d28e6a0	0.041235566
45	0x3dd9c6c6	0.10633616
46	0x3dcaedd6	0.09908645
47	0x3e035851	0.12826659
48	0x3df03173	0.11728182
49	0x3d2363c9	0.039890084
50	0x3d6faa41	0.058511976
51	0x3d8dd754	0.06925836
52	0x3dcb4bf0	0.09926593
53	0x3d309c3b	0.043117743
54	0x3d0991b1	0.033586208
55	0x3de591ed	0.11209474
56	0x3dc960be	0.09832905
57	0x3d487712	0.04894168
58	0x3dcabd35	0.098993696
59	0x3d4fa614	0.050695494
60	0x3d86bf18	0.06579417
61	0x3d7fca23	0.062448632
62	0x3defe590	0.117137074
63	0x3e0243ea	0.1272122
64	0x3e032101	0.12805559
65	0x3d662b98	0.056193918
66	0x3de71c3b	0.112846814
67	0x3df7cb33	0.12099304
68	0x3d51b854	0.05120118
69	0xbd0c5155	-0.03425725
70	0x3d97a0c8	0.074037135
71	0x3e0b8b15	0.13627274
72	0x3dc8ccaa	0.098046616
73	0x3dec9bb7	0.11553138
74	0x3d8deb4c	0.06929645
75	0x3d8c017e	0.06836222
76	0x3dada4a2	0.08478667
77	0x3d170201	0.036867145
78	0x3d501eae	0.05081051
79	0x3d3e39a3	0.046441685
80	0x3d5e5796	0.054282747
81	0x3d7b2766	0.06131687
82	0x3dda5b28	0.10661918
83	0x3cecf871	0.02892706
84	0x3d91b8d6	0.07115333
85	0x3ddfb1ca	0.109225824
86	0x3debb838	0.11509746
87	0x3d83493e	0.06410454
88	0x3d8d9b3b	0.069143735
89	0x3d38d96e	0.045129232
90	0x3dbf27a9	0.093337364
91	0x3dbb7a8e	0.09154235
92	0x3d97dfc5	0.074157275
93	0x3d51bc8e	0.05120521
94	0x3dad0b49	0.08449418
95	0x3d01b500	0.031666756
96	0x3d9a2671	0.07526863
97	0x3def837b	0.11695
98	0x3d803369	0.06259806
99	0x3d62f03d	0.05540489
100	0x3d737fb6	0.059447967
101	0x3d30a560	0.043126464
102	0x3db197ec	0.08671555
103	0x3d008272	0.031374402
104	0x3dafe0fc	0.08587834
105	0x3dab4771	0.08363236
106	0x3dd9b260	0.106297255
107	0x3d5898aa	0.052879967
108	0x3dc76a46	0.09737067
109	0x3df25fb3	0.118346594
110	0x3e15a028	0.14611876
111	0x3d92cfe6	0.0716856
112	0x3d20a364	0.03921832
113	0x3dad8253	0.08472123
114	0x3e1221c2	0.1427069
115	0x3e040b67	0.12894975
116	0x3d8623f5	0.06549827
117	0x3c6bebb7	0.0143994605
118	0x3d8aee17	0.06783693
119	0x3d434d20	0.047680974
120	0x3dc07e85	0.09399132
121	0x3ddf5e38	0.10906643
122	0x3ca92d7e	0.020651575
123	0x3e0f7a4b	0.14011495
124	0x3d78e916	0.060769163
125	0x3d8487a2	0.064711824
126	0x3daed303	0.08536341
127	0x3b2c76a5	0.0026315835

network.2.weight f4 [128]
0	0x3f801b64	1.0008359
1	0x3f8502d1	1.0391484
2	0x3f8486d6	1.0353649
3	0x3f8471cc	1.0347228
4	0x3f72f57b	0.94905823
5	0x3f800f8a	1.0004742
6	0x3f6ebce3	0.9325697
7	0x3f782798	0.96935415
8	0x3f86a540	1.051918
9	0x3f86bf85	1.0527197
10	0x3f64376b	0.8914706
11	0x3f7ea4f4	0.9947045
12	0x3f7c6bfb	0.98602265
13	0x3f852d0d	1.0404373
14	0x3f74e840	0.95666885
15	0x3f65c8b6	0.89759386
16	0x3f736820	0.9508076
17	0x3f800803	1.0002445
18	0x3f767594	0.9627316
19	0x3f55a946	0.83461416
20	0x3f82e5f9	1.0226432
21	0x3f672314	0.902879
22	0x3f66cef1	0.9015952
23	0x3f749994	0.9554684
24	0x3f7f4325	0.9971183
25	0x3f6cf078	0.92554426
26	0x3f746c20	0.95477486
27	0x3f78c3bb	0.9717366
28	0x3f819164	1.0122495
29	0x3f6af598	0.91780996
30	0x3f8212ce	1.0161989
31	0x3f820003	1.0156254
32	0x3f86c71f	1.0529517
33	0x3f7d19b1	0.98867327
34	0x3f842642	1.0324175
35	0x3f86ee73	1.0541519
36	0x3f729e69	0.94772965
37	0x3f77f52f	0.96858495
38	0x3f89a0e8	1.075223
39	0x3f697603	0.91195697
40	0x3f6efb18	0.9335189
41	0x3f5923f9	0.84820515
42	0x3f77e6f7	0.968368
43	0x3f80733c	1.0035167
44	0x3f7a91af	0.97878546
45	0x3f8233a0	1.0172005
46	0x3f6a9f97	0.91649765
47	0x3f82d472	1.0221083
48	0x3f6ef316	0.9333967
49	0x3f84fbf1	1.0389386
50	0x3f63b0cb	0.8894164
51	0x3f65f5e7	0.8982834
52	0x3f7a6e94	0.9782498
53	0x3f83c215	1.0293604
54	0x3f6bee52	0.9216052
55	0x3f827410	1.019167
56	0x3f6f16b4	0.9339402
57	0x3f84397b	1.0330042
58	0x3f7cd424	0.987612
59	0x3f7403c5	0.9531825
60	0x3f66aa5b	0.9010369
61	0x3f7ad7e6	0.97985685
62	0x3f85fdbf	1.0468062
63	0x3f80f002	1.0073245
64	0x3f6ba1b2	0.920436
65	0x3f7afad7	0.98039
66	0x3f78c78f	0.971795
67	0x3f6a4906	0.91517675
68	0x3f68c225	0.9092124
69	0x3f572395	0.8403867
70	0x3f816fdf	1.0112265
71	0x3f7ca247	0.98685116
72	0x3f808dc8	1.0043268
73	0x3f7dddf2	0.99166787
74	0x3f821e3b	1.0165476
75	0x3f69dff1	0.9135733
76	0x3f861dae	1.0477808
77	0x3f651811	0.8948985
78	0x3f822984	1.016892
79	0x3f7760aa	0.9663187
80	0x3f6bec95	0.9215787
81	0x3f76cc98	0.96405935
82	0x3f6cef78	0.925529
83	0x3f707d47	0.9394116
84	0x3f66ebe2	0.9020368
85	0x3f6bf82c	0.92175555
86	0x3f7d34da	0.9890877
87	0x3f66d707	0.90171856
88	0x3f77b2e5	0.96757346
89	0x3f792e59	0.97336346
90	0x3f80cefa	1.0063164
91	0x3f66adb9	0.9010883
92	0x3f7b1c3d	0.98089963
93	0x3f844edc	1.0336566
94	0x3f789503	0.97102374
95	0x3f7635e2	0.9617597
96	0x3f7ff441	0.99982077
97	0x3f7a507d	0.97779065
98	0x3f80bcd6	1.0057628
99	0x3f783772	0.969596
100	0x3f79cb52	0.9757587
101	0x3f7032c6	0.93827474
102	0x3f81f429	1.0152637
103	0x3f89e43c	1.0772777
104	0x3f6ea2d4	0.93217206
105	0x3f7c5314	0.9856427
106	0x3f708450	0.9395189
107	0x3f6b4d97	0.9191527
108	0x3f732537	0.9497866
109	0x3f774e2d	0.9660366
110	0x3f84496e	1.0334909
111	0x3f7c4d12	0.985551
112	0x3f703202	0.93826306
113	0x3f7fb93d	0.99892026
114	0x3f79ab62	0.97527134
115	0x3f85ae25	1.044377
116	0x3f82243d	1.0167309
117	0x3f718b7f	0.9435348
118	0x3f7ae113	0.97999686
119	0x3f7af95f	0.9803676
120	0x3f7ad060	0.97974205
121	0x3f799908	0.9749913
122	0x3f78f735	0.9725221
123	0x3f8a60bd	1.0810772
124	0x3f72d309	0.94853264
125	0x3f847afa	1.035003
126	0x3f744ed8	0.95432806
127	0x3f61b6f1	0.8816977

network.2.bias f4 [128]
0	0x3e0ad8a0	0.13559198
1	0xbe8fc15f	-0.28077218
2	0xbd8ef2d9	-0.06979913
3	0xbd2f3ef0	-0.04278463
4	0xbe5713fd	-0.21003719
5	0xbdcf67e8	-0.101272404
6	0x3e530ea9	0.20611061
7	0xbdd8e7b5	-0.105910696
8	0x3e320ee2	0.1738849
9	0x3d3d2b12	0.046183653
10	0xbda13a7a	-0.07872482
11	0xbd979956	-0.074022934
12	0xbe859196	-0.26087636
13	0x3df1294b	0.11775454
14	0xbdc6f42c	-0.09714541
15	0x3e179e6d	0.14806528
16	0xbe412022	-0.18859914
17	0x3cb4cd07	0.02207042
18	0x3e937272	0.28798252
19	0xbea598fd	-0.32343283
20	0x3e865a1e	0.2624063
21	0xbe8d0caa	-0.27548724
22	0xbc9cb5eb	-0.019129714
23	0xbe64c359	-0.22340144
24	0x3e3a66a5	0.18203218
25	0xbddd5999	-0.10808105
26	0xbe5f5300	-0.21809006
27	0xbe274f57	-0.1633886
28	0xbe9aa531	-0.30204156
29	0xbe2939fe	-0.16526029
30	0xbe016703	-0.12636952
31	0x3de12b71	0.10994614
32	0x3e667831	0.22506787
33	0x3e6ccce2	0.23125032
34	0x3e232249	0.15931047
35	0xbe090b9b	-0.13383333
36	0x3e499eab	0.19689433
37	0x3d08ec49	0.033428464
38	0xbceea94b	-0.02913346
39	0x3e9e88b9	0.30963686
40	0xbdda82c2	-0.10669471
41	0x3e73dce8	0.23814738
42	0xbe0b7383	-0.13618283
43	0x3dcdc2d9	0.1004693
44	0xbd7e3e3c	-0.06207107
45	0x3d8c9051	0.06863464
46	0xbdb3a38a	-0.08771427
47	0xbe05c85a	-0.1306471
48	0xbe8775f6	-0.26457185
49	0xbde5a400	-0.11212921
50	0xbe811354	-0.2521006
51	0xbe9e8a22	-0.30964762
52	0xbe741f9f	-0.23840187
53	0x3e03cda7	0.12871419
54	0x3e76fbf0	0.24119544
55	0x3d87a047	0.06622367
56	0x3d7959ab	0.06087653
57	0x3c6e3804	0.014539722
58	0xbe1131a6	-0.14179096
59	0x3df433a0	0.11923909
60	0xbbeb8a3f	-0.007188111
61	0xbe6e03bd	-0.23243614
62	0x3e68b991	0.22727038
63	0x3e373e91	0.17894961
64	0x3d279317	0.04091176
65	0x3eb60c34	0.35556185
66	0x3e748b1c	0.23881191
67	0xbe5e2acd	-0.21696015
68	0x3e9e8dbc	0.3096751
69	0xbe3ee850	-0.18643308
70	0x3e0e4fe4	0.13897663
71	0x3e26dcad	0.16295119
72	0x3e60ba51	0.21946074
73	0xbe79384c	-0.24337882
74	0x3e820c99	0.25400236
75	0x3df5b98a	0.119982794
76	0xbb945797	-0.004527043
77	0x3ea58d10	0.32334185
78	0xbe892e1d	-0.26792994
79	0x3d87fdc6	0.066402
80	0x3e5d62ab	0.2161967
81	0x3ce1a542	0.027544621
82	0xbd886453	-0.0665976
83	0xbe61ba08	-0.22043622
84	0xbe38fa04	-0.18064123
85	0x3d776b6d	0.060405184
86	0x3e50b5f8	0.20381916
87	0xbdbac9bc	-0.09120509
88	0xbdac62fe	-0.08417319
89	0x3be26f3a	0.006910232
90	0xbe713e75	-0.23558982
91	0x3de0b3b8	0.10971779
92	0x3e6d183d	0.23153777
93	0xbe4374e2	-0.19087556
94	0x3d871ca0	0.06597257
95	0x3dd9c843	0.106339
96	0x3e38a684	0.1803227
97	0x3d77c48c	0.060490176
98	0xbd7c3751	-0.06157619
99	0xbe202b46	-0.15641508
100	0x3d0186d9	0.03162274
101	0x3ddccbd1	0.107810624
102	0x3d48510b	0.048905414
103	0x3e6a6411	0.22889735
104	0xbdd4ff72	-0.10400285
105	0xbdb260c8	-0.08709866
106	0xbe8d7566	-0.2762863
107	0xbe0499c0	-0.12949276
108	0xbdea00e7	-0.11425953
109	0xbe0402fe	-0.12891766
110	0xbd8e0b21	-0.069357164
111	0xbdbe0eac	-0.09280142
112	0x3e58a6a0	0.21157312
113	0xbc8c3f9c	-0.017120175
114	0xbe60280d	-0.21890278
115	0x3db0d49b	0.08634301
116	0x3e85bf94	0.26122725
117	0xbe03e5e3	-0.12880664
118	0x3e9541ea	0.2915185
119	0x3e431fd0	0.19055104
120	0x3d80a5ea	0.062816456
121	0x3e1372ef	0.14399312
122	0xbe744112	-0.23852947
123	0xbd2c1a5c	-0.042017326
124	0x3e057157	0.13031517
125	0xbd000599	-0.03125534
126	0xbe85196a	-0.25995952
127	0x3e49e19c	0.1971497

network.2.running_mean f4 [128]
0	0x3e1bb27d	0.15204807
1	0x3e45260a	0.19252792
2	0x3e386911	0.1800883
3	0x3e26654a	0.16249576
4	0x3e16fc93	0.14744787
5	0x3e12d241	0.14338018
6	0x3e27e87d	0.16397281
7	0x3d50ff7d	0.051024903
8	0x3dee048d	0.11621962
9	0x3e2d5f90	0.16930985
10	0x3e13445d	0.14381547
11	0x3e38520f	0.18000053
12	0x3e318239	0.17334832
13	0x3e26dda6	0.1629549
14	0x3e1caca1	0.15300228
15	0x3e4388a9	0.190951
16	0x3e2ca5e8	0.16860163
17	0x3e13c1ea	0.14429441
18	0x3e0a3ffc	0.1350097
19	0x3e481dd9	0.19542636
20	0x3e0e06bf	0.13869761
21	0x3df23261	0.11826015
22	0x3e315ea7	0.17321263
23	0x3e5a2782	0.21304134
24	0x3e0de748	0.13857758
25	0x3dcfb7cb	0.101424776
26	0x3e1184a6	0.14210758
27	0x3e4a9f9f	0.19787453
28	0x3e0a1548	0.1348468
29	0x3e4901b9	0.19629563
30	0x3e0f6cc7	0.14006339
31	0x3e1338a0	0.1437707
32	0x3e1fd24c	0.15607566
33	0x3e036385	0.12830932
34	0x3e0a60a8	0.13513434
35	0x3e3720f8	0.1788367
36	0x3e12616e	0.14294979
37	0x3e0b9b51	0.13633467
38	0x3e3711a7	0.17877828
39	0x3e041e31	0.12902142
40	0x3e095f00	0.13415146
41	0x3de090d0	0.10965121
42	0x3dbc66cb	0.09199294
43	0x3e14a52a	0.1451613
44	0x3dbca1eb	0.09210571
45	0x3e1e5d38	0.15465248
46	0x3e2893c2	0.16462615
47	0x3e3d5f1b	0.18493311
48	0x3e1c268c	0.1524908
49	0x3de0362a	0.10947831
50	0x3dff4b9a	0.12465592
51	0x3e029b30	0.12754512
52	0x3e23fb88	0.1601392
53	0x3e067efb	0.13134377
54	0x3da28756	0.079359695
55	0x3e2fd235	0.17170031
56	0x3e0305fd	0.12795253
57	0x3dcd0ff9	0.10012812
58	0x3e31cae5	0.17362554
59	0x3df5c381	0.1200018
60	0x3de128e5	0.10994128
61	0x3de5c644	0.11219457
62	0x3e20ffd4	0.1572259
63	0x3e33e8d6	0.17569289
64	0x3e1e7364	0.15473706
65	0x3dd90dfc	0.105983704
66	0x3e0f4fec	0.13995332
67	0x3e3b2a35	0.1827782
68	0x3dc002ee	0.09375559
69	0x3d6799f5	0.05654331
70	0x3e0ddf23	0.13854651
71	0x3e31d882	0.17367747
72	0x3df94392	0.12171091
73	0x3e2c4f6f	0.16827177
74	0x3dfad558	0.12247723
75	0x3dd63453	0.10459199
76	0x3df20202	0.11816789
77	0x3da3d3a7	0.07999354
78	0x3dd36543	0.103220485
79	0x3dc782e1	0.0974176
80	0x3de3caba	0.111226514
81	0x3e077eba	0.13231936
82	0x3e23654a	0.15956607
83	0x3deaefd0	0.11471522
84	0x3e15097a	0.14554396
85	0x3e379d4f	0.17931102
86	0x3e30d07c	0.1726703
87	0x3ddb7bc2	0.10716964
88	0x3ddebd05	0.10875896
89	0x3dcf86c1	0.10133124
90	0x3e2dce5c	0.16973251
91	0x3e01aafb	0.1266288
92	0x3df6d8d5	0.12053076
93	0x3dd560dd	0.10418866
94	0x3e089edc	0.1334185
95	0x3da31e58	0.07964772
96	0x3e0873ed	0.13325472
97	0x3e167463	0.14692836
98	0x3e156ad8	0.14591539
99	0x3e0ecd54	0.13945514
100	0x3e03be7a	0.1286563
101	0x3db7fd3c	0.089838475
102	0x3e139b75	0.14414771
103	0x3de804a8	0.11329013
104	0x3e1039ee	0.14084598
105	0x3e0cb404	0.13740546
106	0x3e07a1ba	0.13245288
107	0x3dd24fa0	0.102690935
108	0x3e1e9b70	0.15488982
109	0x3e23b139	0.15985574
110	0x3e4f16a9	0.20223488
111	0x3df3406e	0.11877523
112	0x3ddb05a7	0.106944375
113	0x3e0bcbf8	0.13652027
114	0x3e140fd8	0.14459169
115	0x3e37bb71	0.17942597
116	0x3dff7e53	0.12475266
117	0x3dc2415b	0.09485122
118	0x3e08df71	0.13366486
119	0x3e051a38	0.12998283
120	0x3e1c7abb	0.15281193
121	0x3e3611ac	0.17780179
122	0x3ddfc356	0.10925929
123	0x3e42516b	0.18976371
124	0x3e03f7fd	0.12887569
125	0x3e02ee6f	0.12786268
126	0x3e12cb8b	0.14335458
127	0x3dceb40a	0.100929335

network.2.running_var f4 [128]
0	0x3d059511	0.032612864
1	0x3d1219f0	0.035669267
2	0x3d125949	0.03572968
3	0x3cc83f11	0.024444135
4	0x3ca1e15f	0.019760786
5	0x3c9b0098	0.018921182
6	0x3ce1abc1	0.027547719
7	0x3c08c86e	0.008348567
8	0x3ca80994	0.02051238
9	0x3d1c063a	0.038091876
10	0x3c8a1548	0.01685585
11	0x3d0daef2	0.03459067
12	0x3d0c6e11	0.034284655
13	0x3d00bc11	0.031429354
14	0x3cae5a31	0.021283241
15	0x3d02f0cc	0.031967923
16	0x3ceb3611	0.028712304
17	0x3cc6f6fb	0.024287691
18	0x3d098216	0.033571325
19	0x3cce4a8e	0.025182035
20	0x3cec33d9	0.028833317
21	0x3cbfe8fe	0.023426529
22	0x3ccfc56a	0.025362689
23	0x3d11af1b	0.035567384
24	0x3cb30bdb	0.021856239
25	0x3cc4a83c	0.024006002
26	0x3c975ccd	0.018476868
27	0x3cf1d3aa	0.029519875
28	0x3caa87f3	0.020816779
29	0x3cdeb21c	0.027184539
30	0x3ce7d66c	0.028300487
31	0x3ca31c24	0.01991088
32	0x3d08bf81	0.033385757
33	0x3cddce4f	0.027075915
34	0x3ca6393f	0.020290969
35	0x3d1864f9	0.03720567
36	0x3cc92fab	0.024558863
37	0x3c84b11c	0.016197734
38	0x3d054d5f	0.03254449
39	0x3caaa9c3	0.020832902
40	0x3ce3e19d	0.027817542
41	0x3c9ac7b4	0.018894054
42	0x3c79ef3e	0.015254794
43	0x3ceb12ca	0.028695483
44	0x3c51aa5e	0.012796966
45	0x3cab42e1	0.020905914
46	0x3ce5826c	0.028016292
47	0x3cf0d18a	0.029396791
48	0x3c9ebe50	0.019377857
49	0x3ca0ce44	0.019629605
50	0x3ca7fb39	0.020505534
51	0x3c918471	0.017763348
52	0x3cc86ad5	0.024465004
53	0x3cfc25c2	0.030779723
54	0x3c28cb71	0.01030241
55	0x3cb0c388	0.021577612
56	0x3c973374	0.018457152
57	0x3c7378a0	0.014860302
58	0x3cfee943	0.031117087
59	0x3c97e50d	0.018541837
60	0x3c53f8c6	0.01293773
61	0x3c98cb02	0.01865149
62	0x3cb25060	0.021766841
63	0x3cd97898	0.026546761
64	0x3ca12cca	0.019674677
65	0x3ca7ddfd	0.020491594
66	0x3ca72035	0.0204011
67	0x3d03ee47	0.03220966
68	0x3c5a9a70	0.013342485
69	0x3c2948f3	0.010332334
70	0x3cd61f07	0.026137842
71	0x3cc43a03	0.023953443
72	0x3ca0beff	0.019622324
73	0x3cebb2aa	0.028771717
74	0x3c96e275	0.01841853
75	0x3c84199b	0.01612549
76	0x3ca34439	0.019929992
77	0x3c37797a	0.011198396
78	0x3c40b996	0.011762997
79	0x3c65c703	0.014024499
80	0x3c9cb538	0.01912938
81	0x3cab3f48	0.020904198
82	0x3cf1329c	0.029443078
83	0x3ca01b53	0.01954428
84	0x3c9b2698	0.018939301
85	0x3d192a4c	0.037393853
86	0x3d1742cc	0.036928937
87	0x3c804a11	0.015660318
88	0x3ca25546	0.019816052
89	0x3c5a482a	0.013322869
90	0x3cf5b1a6	0.029991936
91	0x3c9d2935	0.019184688
92	0x3ca43334	0.020043947
93	0x3c7d75ac	0.01546995
94	0x3ca65c62	0.020307723
95	0x3c63aa72	0.013895618
96	0x3cd3af39	0.025840389
97	0x3c99bf3c	0.018767945
98	0x3cf2cb6e	0.029638018
99	0x3ce9e7c0	0.02855289
100	0x3cad4eeb	0.021155795
101	0x3c2aed88	0.010432608
102	0x3c7e21bc	0.015510973
103	0x3cab34c0	0.020899177
104	0x3ca97d80	0.020689726
105	0x3ca2c83d	0.019870872
106	0x3c954d79	0.018225418
107	0x3c78294e	0.015146567
108	0x3cb6feb1	0.022338243
109	0x3ce489c1	0.027897717
110	0x3d028382	0.031863697
111	0x3c97fac1	0.018552186
112	0x3caa3e5d	0.02078169
113	0x3cb9d360	0.0226838
114	0x3ca8db6a	0.020612437
115	0x3d174128	0.036927372
116	0x3ca52184	0.020157583
117	0x3c6f7e04	0.014617447
118	0x3c8bcc5f	0.017065225
119	0x3d02774b	0.031852048
120	0x3cb82443	0.022478228
121	0x3cd6774d	0.026179934
122	0x3cbab1da	0.022789884
123	0x3d4257bd	0.047446955
124	0x3cb39359	0.021920847
125	0x3caadd16	0.020857375
126	0x3ccfed43	0.02538169
127	0x3c991bc0	0.01868999

network.4.weight f4 [64, 128]
0	0xbd8c6fe6	-0.068572804
1	0x3da3eb01	0.08003808
2	0x3c4db16d	0.012554509
3	0x3e4524b2	0.1925228
4	0xbe0101e8	-0.12598383
5	0xbdc230c9	-0.09481961
6	0x3d5faaf8	0.054606408
7	0xbccfb22c	-0.025353514
8	0xbd928cf8	-0.07155794
9	0x3dd7b9f1	0.105335124
10	0xbd40628b	-0.046968978
11	0xbd4aaf80	-0.049483776
12	0xbd27a8d2	-0.040932484
13	0x3d652f97	0.05595359
14	0xbe0d6efd	-0.1381187
15	0xbe0adfb0	-0.13561893
16	0xbe67e414	-0.22645599
17	0x3db124b3	0.08649578
18	0x3deb10f5	0.11477844
19	0xbd86d4a8	-0.0658353
20	0x3da65914	0.08122459
21	0xbd5bb128	-0.053635746
22	0xbe19ad87	-0.15007602
23	0xbde0e3b5	-0.10980932
24	0x3d0d463e	0.034490816
25	0x3e1f6d07	0.15568934
26	0xbd32febe	-0.043699972
27	0xbe5fa17c	-0.21838945
28	0xbd266e85	-0.040632743
29	0xbd048efa	-0.032362916
30	0x3daac7c9	0.08338887
31	0xbe23cbeb	-0.15995757
32	0x3dc2aaf4	0.09505263
33	0x3bec0c98	0.0072036497
34	0xbd0b2677	-0.03397223
35	0xbe2b1164	-0.16705853
36	0x3d8e5a0c	0.06950769
37	0xbcfe9574	-0.031077124
38	0x3db2d7e9	0.08732588
39	0x3dc1d98d	0.09465323
40	0xbc545536	-0.012959769
41	0xbca48ddb	-0.020087173
42	0x3d5572e6	0.05211153
43	0x3c469188	0.012119658
44	0x3e04d823	0.12973075
45	0xbd5cfec5	-0.053953905
46	0xbd41a578	-0.047276944
47	0x3c17ffa2	0.009277256
48	0x3c99fd2e	0.018797483
49	0xbe098fab	-0.13433711
50	0x3dfb453b	0.12269064
51	0x3cfcdfc5	0.03086842
52	0xbcc140b7	-0.023590429
53	0x3d182f28	0.037154347
54	0x3d94a285	0.07257561
55	0xbd239473	-0.039936494
56	0xbdb9746c	-0.09055409
57	0x3d92f93e	0.071764454
58	0xbe0b990e	-0.13632604
59	0xbc698adb	-0.014254297
60	0xbd8dd71a	-0.06925793
61	0x3dad8cad	0.084740974
62	0xbdacaee3	-0.084317945
63	0x3de1119a	0.10989685
64	0xbe21ba86	-0.1579381
65	0x3d499ec0	0.04922366
66	0xbe8bc500	-0.27298737
67	0xbdf1d3fa	-0.118080094
68	0x3d9bb93a	0.076036885
69	0xbccf9bc1	-0.025342824
70	0x3e0894d8	0.1333803
71	0x3e16b2bd	0.1471662
72	0x3dea3ed8	0.11437768
73	0xbd503092	-0.05082757
74	0x3d8285f4	0.06373206
75	0x3d59d548	0.053181916
76	0x3d0e6b66	0.034770392
77	0x3e15dcb1	0.14634968
78	0xbe4426a7	-0.1915537
79	0xbd695771	-0.056968156
80	0xbc1be563	-0.009515139
81	0xbb7791fd	-0.0037776225
82	0x3d085e71	0.03329319
83	0x3d568164	0.05236949
84	0x3d8b95f8	0.06815714
85	0x3d845d04	0.06463054
86	0x3ca47b6b	0.020078382
87	0xbdd9f08e	-0.10641585
88	0x3d70f8b4	0.05883093
89	0x3e158c06	0.14604196
90	0x3db05bb0	0.08611238
91	0x3c573af5	0.013136615
92	0xbe121e64	-0.14269406
93	0x3d8975ba	0.06711908
94	0xbe68b1d4	-0.22724086
95	0x3e2f2f1c	0.17107815
96	0x3cd676c6	0.026179682
97	0xbdf32e12	-0.118740216
98	0x3b9b7be6	0.0047449945
99	0xbdb2cfe1	-0.08731056
100	0x3d678b9f	0.056529637
101	0x3d2b2931	0.04178733
102	0xbcf101e3	-0.029419845
103	0x3d426470	0.047459066
104	0xbddfb30a	-0.10922821
105	0xbca28c3b	-0.019842258
106	0xbe6b13e4	-0.22956806
107	0xba164103	-0.00057317334
108	0xbe1c769c	-0.15279621
109	0x3a6997c9	0.00089108624
110	0x3cd76bc8	0.026296511
111	0x3d26096d	0.040536333
112	0xbddd4717	-0.10804575
113	0x3c70dee2	0.014701577
114	0x3e654456	0.2238935
115	0x3da3f67b	0.08005997
116	0x3ddb5551	0.10709632
117	0xbd07b67d	-0.03313302
118	0xbe00c3ed	-0.1257474
119	0x3dfd3815	0.123642124
120	0x3dc42c08	0.09578711
121	0x3e4d5b4d	0.2005436
122	0xbe00b450	-0.12568784
123	0xbd4f65e2	-0.050634272
124	0xbcf76c44	-0.030202992
125	0x3d3819f3	0.044946622
126	0xbdf611a8	-0.120150864
127	0x3d9e89ce	0.07741128
128	0xbdb012db	-0.085973464
129	0x3cd3d9b2	0.025860641
130	0xbe889782	-0.2667809
131	0xbd13efeb	-0.036117475
132	0x3d71f02d	0.05906694
133	0x3cda4c6d	0.02664777
134	0x3cc3f5ba	0.023920882
135	0x3e8482b5	0.25880972
136	0xbd68614b	-0.05673341
137	0x3de54461	0.11194683
138	0xbe22aa8e	-0.15885374
139	0x3e235143	0.15948968
140	0x3dad4503	0.084604286
141	0x3daa298a	0.08308704
142	0x3dfaab97	0.122397594
143	0xbda4707d	-0.08029268
144	0xbd590e93	-0.052992415
145	0xbcace4a2	-0.021105114
146	0xbd832b11	-0.06404699
147	0xbc8e9b89	-0.01740815
148	0x3d96fe20	0.07372689
149	0x3d276072	0.04086346
150	0xbda23f28	-0.07922202
151	0x3e01a55f	0.1266074
152	0x3d998c99	0.0749752
153	0xbd3e1acd	-0.046412278
154	0xbd43c917	-0.047799196
155	0xbd42423d	-0.04742645
156	0xbd9ea08d	-0.077454664
157	0xbdc7ef59	-0.09762449
158	0xbe2761b2	-0.16345862
159	0x3e2608aa	0.16214243
160	0xbe44da9d	-0.1922402
161	0xbd8724c6	-0.06598811
162	0xbc42b2d6	-0.011883458
163	0x3c0f745b	0.008755769
164	0x3c986492	0.018602643
165	0x3b193485	0.0023377251
166	0x3e3c519f	0.18390511
167	0x3e06c9b5	0.13162883
168	0xbd888f68	-0.066679776
169	0x3d666fb7	0.056258883
170	0x3d1eb765	0.038749117
171	0xbdaec7e7	-0.08534222
172	0x3e3b4e7f	0.18291663
173	0x3d6a4b1c	0.057200536
174	0xbdbcee95	-0.092251934
175	0xbe2d2052	-0.1690686
176	0xbdc35ef2	-0.09539594
177	0x3d8be4ed	0.068307735
178	0xbdf71d34	-0.12066117
179	0xbe0341d2	-0.12818077
180	0xbc87d626	-0.016581606
181	0xbe0c31da	-0.13690892
182	0xbd7ef9ac	-0.062249824
183	0xba6664df	-0.00087888347
184	0xbdce7a5d	-0.10081933
185	0x3e1a91e6	0.15094718
186	0x3d543f5e	0.051818244
187	0xbddb523c	-0.10709044
188	0xbd92fb74	-0.07176867
189	0xbe27d755	-0.16390736
190	0xbdc064a1	-0.093941934
191	0x3daa87ec	0.08326706
192	0x3e52e160	0.20593786
193	0xbd834f9f	-0.06411671
194	0xbe0b90cb	-0.13629453
195	0xbddf86af	-0.10914361
196	0x3e0895b2	0.13338354
197	0x3ddd4c88	0.10805613
198	0xbe387a28	-0.18015349
199	0xbe57199e	-0.21005866
200	0x3de7a2e9	0.113103695
201	0xbd9d1b66	-0.076712415
202	0x3df0582e	0.11735569
203	0x3ce8c0f0	0.028412312
204	0xbcb97c19	-0.022642182
205	0x3df41927	0.1191886
206	0x3e42a12a	0.19006792
207	0x3d5aa3e4	0.053378955
208	0x3defe168	0.11712915
209	0x3cd92b7d	0.026509995
210	0xbd70bec3	-0.058775675
211	0x3c1c20db	0.009529318
212	0xbd9b1b2b	-0.07573541
213	0x3e06f023	0.13177542
214	0xbd263114	-0.04057415
215	0x3e09b72c	0.13448781
216	0xbd8ac1b9	-0.06775231
217	0xbdfb6631	-0.12275351
218	0xbc51b471	-0.012799368
219	0x3d843fec	0.06457505
220	0x3e404642	0.18776801
221	0xbd2f15fa	-0.042745568
222	0x3d67c3dd	0.056583274
223	0x3dfbe2bd	0.12299106
224	0x3caf4024	0.02139289
225	0xbd208a0e	-0.03919416
226	0xbe03dc3e	-0.12876984
227	0xbe193690	-0.1496222
228	0x3caf1079	0.02137016
229	0x3d15176a	0.036399283
230	0x3c47f8fd	0.0122053595
231	0xbc1e9d30	-0.009681031
232	0x3d7b3012	0.06132514
233	0xbe235c09	-0.15953077
234	0x3d602e60	0.054731727
235	0x3d3c558c	0.04598002
236	0xbe2a75c4	-0.16646487
237	0xbce34873	-0.027744507
238	0x3e5419c3	0.20712952
239	0xbdb1e113	-0.086855076
240	0x3d8ead7b	0.069666825
241	0xbe22b7a3	-0.15890364
242	0x3d05cd25	0.032666344
243	0xbd8655a3	-0.06559303
244	0x3d7eba04	0.062189117
245	0xbe1486ff	-0.14504622
246	0xbe5e9d8e	-0.2173979
247	0xbcc60021	-0.024169983
248	0xbeb78d46	-0.3584997
249	0xbdddf8a1	-0.10838438
250	0xbd0cfb80	-0.034419537
251	0xbe0f7a61	-0.14011528
252	0xbc2804fd	-0.010255096
253	0x3e040199	0.12891234
254	0xbe136dc7	-0.14397345
255	0xbd2c9ef5	-0.04214378

network.4.bias f4 [64]
0	0x3e903e74	0.28172648
1	0x3e46b146	0.19403562
2	0x3eb16abb	0.3465174
3	0x3ecad700	0.39617157
4	0x3e8e793a	0.27826864
5	0x3ead9cc1	0.33908656
6	0x3e73a1cc	0.2379219
7	0x3e91d5b3	0.28483352
8	0x3e85607f	0.26050183
9	0x3ea0fc3e	0.31442446
10	0x3edf1194	0.435681
11	0x3e514c1d	0.20439191
12	0x3e7ca73b	0.24673168
13	0x3eb8b9d1	0.36079267
14	0x3ecd53ab	0.40102896
15	0x3ea6d4e8	0.3258431
16	0x3e78b875	0.24289115
17	0x3e8c140e	0.2735905
18	0x3e8b98e7	0.27265093
19	0x3ea291d5	0.31751886
20	0x3e88b6ee	0.26702064
21	0x3e85209c	0.2600144
22	0x3eb8d2e7	0.36098406
23	0x3ea048db	0.31305584
24	0x3ea67501	0.32511142
25	0x3ebd62b7	0.36989376
26	0x3ea27475	0.31729475
27	0x3eabea04	0.33576977
28	0x3e91c5c4	0.28471196
29	0x3ea33b42	0.31881148
30	0x3ea3c435	0.31985632
31	0x3ea5c021	0.32373145
32	0x3e93bb98	0.2885406
33	0x3e8e68c5	0.27814308
34	0x3eb20936	0.34772652
35	0x3eb351d1	0.35023358
36	0x3eb0f6b1	0.3456321
37	0x3e9d5587	0.30729315
38	0x3e8a45fa	0.27006513
39	0x3ea1cac7	0.3160002
40	0x3e8c3505	0.273842
41	0x3eae3ecf	0.34032294
42	0x3e8808df	0.26569268
43	0x3eb1bcce	0.3471436
44	0x3eb86e68	0.36021733
45	0x3eb50a36	0.35359353
46	0x3ec45bbc	0.38351238
47	0x3e93ded5	0.28880945
48	0x3e55fb64	0.20896679
49	0x3e62b823	0.22140555
50	0x3eb54403	0.3540345
51	0x3e75e01b	0.2401127
52	0x3e9aa768	0.30205846
53	0x3e925c71	0.28586152
54	0x3e877f30	0.26464224
55	0x3e3cb386	0.18427858
56	0x3e934e9c	0.28770912
57	0x3e98b38d	0.29824486
58	0x3e847862	0.25873095
59	0x3e84058c	0.25785482
60	0x3e6f1493	0.23347692
61	0x3e9380d5	0.2880923
62	0x3eb6d992	0.35712868
63	0x3ea1874c	0.31548536

network.6.weight f4 [64]
0	0x3fda72d4	1.7066293
1	0x3fdf39fb	1.7439569
2	0x3fdd82e8	1.7305574
3	0x3fdee921	1.7414895
4	0x3fd9500f	1.6977557
5	0x3fded08b	1.7407392
6	0x3fde3781	1.7360688
7	0x3fdbf7c2	1.7184985
8	0x3fd9d29e	1.70174
9	0x3fe764ac	1.8077598
10	0x3fdde75e	1.7336233
11	0x3fdcb821	1.7243692
12	0x3fe0f9fa	1.7576287
13	0x3fdc93cd	1.7232605
14	0x3fe12c2c	1.7591605
15	0x3fe759e9	1.8074313
16	0x3fda93c1	1.7076341
17	0x3fd96f58	1.6987104
18	0x3fdb280b	1.7121595
19	0x3fe0fcd5	1.7577158
20	0x3fe4962f	1.7858332
21	0x3fe77a0d	1.8084122
22	0x3fe51886	1.7898109
23	0x3fe2973d	1.7702404
24	0x3fe24891	1.7678396
25	0x3fe0c6bd	1.756065
26	0x3fe7111d	1.8052098
27	0x3fe1ad7a	1.7631066
28	0x3fde3bfc	1.7362056
29	0x3fdc2bac	1.7200828
30	0x3fd96826	1.6984909
31	0x3fe8431d	1.8145481
32	0x3fe21679	1.7663108
33	0x3fdc7624	1.7223554
34	0x3fde2d43	1.7357563
35	0x3fda7848	1.7067957
36	0x3fe31986	1.7742164
37	0x3fe23014	1.7670922
38	0x3fe696fd	1.8014828
39	0x3fdd9c83	1.7313389
40	0x3fdf5330	1.7447262
41	0x3fd7633d	1.682716
42	0x3fd48db1	1.6605741
43	0x3fe74f67	1.8071107
44	0x3fdd4976	1.7288043
45	0x3fdb2116	1.7119472
46	0x3fddff60	1.7343559
47	0x3fdd9041	1.7309648
48	0x3fddd0d9	1.732936
49	0x3fe3301b	1.7749056
50	0x3fdedf66	1.7411926
51	0x3fd85f08	1.6904001
52	0x3fdbd307	1.7173775
53	0x3fdd4e73	1.7289566
54	0x3fdd91b2	1.7310088
55	0x3fe22ac5	1.7669302
56	0x3fda97f9	1.7077628
57	0x3fe2f0ec	1.7729774
58	0x3fdc868b	1.7228559
59	0x3fdd2c28	1.72791
60	0x3fdc21da	1.7197831
61	0x3fe22cd3	1.7669929
62	0x3fd9f218	1.7027006
63	0x3fe44d15	1.7836024

network.6.bias f4 [64]
0	0xbf4bd7f2	-0.7962638
1	0xbf37e71a	-0.7183701
2	0xbf50a8d1	-0.81507593
3	0xbf3e626f	-0.7436895
4	0xbf331017	-0.69946426
5	0xbf5e6536	-0.86873186
6	0xbf31c108	-0.6943517
7	0xbf75bcf2	-0.9599143
8	0xbf33421b	-0.70022744
9	0xbf6cbc1d	-0.9247454
10	0xbf765172	-0.96218026
11	0xbf42f3af	-0.7615308
12	0xbf363808	-0.71179247
13	0xbf1092a0	-0.5647373
14	0xbf5abcd2	-0.85444367
15	0xbf5d8cfa	-0.8654324
16	0xbf6e82ac	-0.9316814
17	0xbf36e708	-0.71446276
18	0xbf2f75db	-0.6853921
19	0xbf602c5a	-0.87567675
20	0xbf6349b1	-0.8878432
21	0xbf5fb772	-0.8738929
22	0xbf49b6f7	-0.7879481
23	0xbf7549c0	-0.9581566
24	0xbf5816b6	-0.84409654
25	0xbf45a538	-0.7720523
26	0xbf5b5516	-0.85676706
27	0xbf56e2f6	-0.83940065
28	0xbf3e8d76	-0.744346
29	0xbf73a270	-0.95169735
30	0xbf3bc317	-0.7334456
31	0xbf6ea68e	-0.9322289
32	0xbf56fa57	-0.8397574
33	0xbf5db760	-0.86607933
34	0xbf55bde7	-0.83492893
35	0xbf28b6ef	-0.65904135
36	0xbf0c153f	-0.5471992
37	0xbf66d7e5	-0.9017318
38	0xbf5580ae	-0.83399475
39	0xbf3076d8	-0.6893134
40	0xbf4cc014	-0.7998059
41	0xbf31d6a3	-0.69468135
42	0xbf4be95f	-0.7965297
43	0xbf5207d8	-0.8204322
44	0xbf393343	-0.72343844
45	0xbf4345e3	-0.76278514
46	0xbf5041bc	-0.813503
47	0xbf22399c	-0.63369155
48	0xbf3cca1b	-0.7374589
49	0xbf45cdbf	-0.7726707
50	0xbf5902e0	-0.8477001
51	0xbf37521e	-0.71609676
52	0xbf42a938	-0.7603946
53	0xbf2cd8ac	-0.67518115
54	0xbf5268a6	-0.8219093
55	0xbf49b9b7	-0.78799003
56	0xbf39c730	-0.7256956
57	0xbf5c9415	-0.86163455
58	0xbf5a88de	-0.8536509
59	0xbf694e2d	-0.9113491
60	0xbf376d2c	-0.7165096
61	0xbf693b4c	-0.91106105
62	0xbf414e0d	-0.7550972
63	0xbf70f174	-0.9411843

network.6.running_mean f4 [64]
0	0x3fb8e0bf	1.4443587
1	0x3fd6f6f9	1.679412
2	0x3fc3423a	1.5254586
3	0x3fcc542f	1.5963191
4	0x401155f9	2.2708724
5	0x3fc3ffa6	1.5312393
6	0x3fad3cb8	1.3534155
7	0x3fe448df	1.7834738
8	0x3ff1f8f8	1.8904104
9	0x3fdbca70	1.7171154
10	0x3fe6b3c1	1.8023607
11	0x3ff84a8d	1.9397751
12	0x3fd0a576	1.6300495
13	0x400e0139	2.2188246
14	0x3fbf107e	1.4926908
15	0x3ff7277e	1.9308927
16	0x3ff8ae9d	1.9428288
17	0x3ff4660f	1.9093646
18	0x3fc9cbc0	1.5765305
19	0x3fea9fdc	1.8330035
20	0x3fe1c4c4	1.7638173
21	0x40074b6d	2.1139786
22	0x4015a7bf	2.3383634
23	0x3fd482cd	1.6602417
24	0x3f932b11	1.1497518
25	0x3ffaef5d	1.9604298
26	0x3fd07c4a	1.628793
27	0x3fcd54a2	1.6041453
28	0x3fe10b2d	1.7581536
29	0x3fccf4f8	1.6012259
30	0x3fd48620	1.6603432
31	0x3fe3ead4	1.7806039
32	0x3fff4bb0	1.9944973
33	0x4013ae81	2.3075259
34	0x3fd53f3c	1.6659923
35	0x3ff0dd4d	1.8817536
36	0x3fee329e	1.8609197
37	0x400c0ada	2.1881623
38	0x3fe53729	1.7907459
39	0x3ffe420c	1.9863906
40	0x3fc2802f	1.5195369
41	0x3ffe88f5	1.9885546
42	0x3ff5df75	1.9208819
43	0x400af3cf	2.171131
44	0x3fed6737	1.8547124
45	0x3feba9e8	1.8411226
46	0x3ff5b2a2	1.919514
47	0x3fd657f8	1.6745596
48	0x3fb15d49	1.3856593
49	0x3fc3be77	1.52925
50	0x3fdb1271	1.7115003
51	0x3ff887b5	1.9416414
52	0x3fd5cddf	1.6703452
53	0x3fed2a44	1.8528523
54	0x3fc5bc71	1.5448133
55	0x3fb3150e	1.39908
56	0x3feca49e	1.8487737
57	0x3fdb7d1c	1.7147555
58	0x3fe35349	1.7759792
59	0x4005ded3	2.091725
60	0x3fd7d1cb	1.6860899
61	0x40038055	2.0547078
62	0x3feb692a	1.8391469
63	0x3feeb968	1.8650331

network.6.running_var f4 [64]
0	0x40339599	2.8060057
1	0x408fb9ca	4.4914293
2	0x4082e83a	4.090848
3	0x4076a4c1	3.8538058
4	0x40dc8fef	6.89257
5	0x404434a8	3.065714
6	0x405d05f4	3.4534883
7	0x409f3fa4	4.9765186
8	0x40b4d2b0	5.6507187
9	0x40a2e8dd	5.0909257
10	0x40919b0c	4.5501766
11	0x40c0b9c4	6.0226765
12	0x40750f63	3.8290641
13	0x40ce8786	6.4540434
14	0x403acccf	2.9187505
15	0x40b15924	5.5421314
16	0x40f53f47	7.6639743
17	0x40ac2fda	5.3808413
18	0x4060adf7	3.510618
19	0x40a6e214	5.2150974
20	0x40ad3edf	5.4139247
21	0x41077c4d	8.467847
22	0x40ceaeaa	6.4588213
23	0x40a51424	5.1587086
24	0x401017aa	2.2514443
25	0x4089671e	4.2938375
26	0x406e8af0	3.72723
27	0x4080c264	4.0237293
28	0x40985e40	4.761505
29	0x408fe23e	4.4963675
30	0x406ce0f1	3.7012293
31	0x409fbea5	4.992022
32	0x40daa967	6.833179
33	0x41139668	9.22422
34	0x4069b716	3.6517997
35	0x4086b76b	4.20989
36	0x408249f5	4.071528
37	0x40f38ee9	7.611195
38	0x40a35bdd	5.104964
39	0x40b0ddfb	5.527097
40	0x40630121	3.546944
41	0x40a151a5	5.0412164
42	0x40a67587	5.2018466
43	0x40cfeaa9	6.497395
44	0x407a06c6	3.9066634
45	0x409ed83a	4.963895
46	0x409b2ba7	4.8490787
47	0x40623a6a	3.5348153
48	0x406525cb	3.5804317
49	0x40931d74	4.5973454
50	0x40936e9c	4.607252
51	0x40adc95c	5.43083
52	0x40510809	3.2661154
53	0x4092ec7b	4.5913672
54	0x4058f114	3.3897142
55	0x407cdacc	3.9508543
56	0x40b257b6	5.573207
57	0x40964569	4.695973
58	0x40813709	4.037968
59	0x40ed81a9	7.4220777
60	0x40961df2	4.6911554
61	0x41044f1b	8.269313
62	0x408259d8	4.0734673
63	0x40c28852	6.0791407
